…
:::MLLOG {"namespace": "", "time_ms": 1619174474954, "event_type": "POINT_IN_TIME", "key": "opt_name", "value": "SGD", "metadata": {"file": "/gpfs/alpine/aph114/scratch/mrowan/ml-performance-benchmark/cosmoflow/summit/src/utils/optimizers.py", "lineno": 106}}
2021-04-23 06:41:14.979046: I tensorflow/stream_executor/platform/default/dso_loader.cc:48] Successfully opened dynamic library libcublas.so.10
2021-04-23 06:41:14,994 INFO Writing config via pickle to results/16_nodes_batchsize_1_j923946/config.pkl
2021-04-23 06:41:14,997 INFO Preparing callbacks
Model: "sequential"
_________________________________________________________________
Layer (type)                 Output Shape              Param #   
=================================================================
conv3d (Conv3D)              (None, 128, 128, 128, 32) 1056      
_________________________________________________________________
leaky_re_lu (LeakyReLU)      (None, 128, 128, 128, 32) 0         
_________________________________________________________________
max_pooling3d (MaxPooling3D) (None, 64, 64, 64, 32)    0         
_________________________________________________________________
conv3d_1 (Conv3D)            (None, 64, 64, 64, 64)    16448     
_________________________________________________________________
leaky_re_lu_1 (LeakyReLU)    (None, 64, 64, 64, 64)    0         
_________________________________________________________________
max_pooling3d_1 (MaxPooling3 (None, 32, 32, 32, 64)    0         
_________________________________________________________________
conv3d_2 (Conv3D)            (None, 32, 32, 32, 128)   65664     
_________________________________________________________________
leaky_re_lu_2 (LeakyReLU)    (None, 32, 32, 32, 128)   0         
_________________________________________________________________
max_pooling3d_2 (MaxPooling3 (None, 16, 16, 16, 128)   0         
_________________________________________________________________
conv3d_3 (Conv3D)            (None, 16, 16, 16, 256)   262400    
_________________________________________________________________
leaky_re_lu_3 (LeakyReLU)    (None, 16, 16, 16, 256)   0         
_________________________________________________________________
max_pooling3d_3 (MaxPooling3 (None, 8, 8, 8, 256)      0         
_________________________________________________________________
conv3d_4 (Conv3D)            (None, 8, 8, 8, 512)      1049088   
_________________________________________________________________
leaky_re_lu_4 (LeakyReLU)    (None, 8, 8, 8, 512)      0         
_________________________________________________________________
max_pooling3d_4 (MaxPooling3 (None, 4, 4, 4, 512)      0         
_________________________________________________________________
flatten (Flatten)            (None, 32768)             0         
_________________________________________________________________
dense (Dense)                (None, 128)               4194432   
_________________________________________________________________
leaky_re_lu_5 (LeakyReLU)    (None, 128)               0         
_________________________________________________________________
dropout (Dropout)            (None, 128)               0         
_________________________________________________________________
dense_1 (Dense)              (None, 64)                8256      
_________________________________________________________________
leaky_re_lu_6 (LeakyReLU)    (None, 64)                0         
_________________________________________________________________
dropout_1 (Dropout)          (None, 64)                0         
_________________________________________________________________
dense_2 (Dense)              (None, 4)                 260       
_________________________________________________________________
lambda (Lambda)              (None, 4)                 0         
=================================================================
Total params: 5,597,604
Trainable params: 5,597,604
Non-trainable params: 0
_________________________________________________________________
:::MLLOG {"namespace": "", "time_ms": 1619174474997, "event_type": "POINT_IN_TIME", "key": "opt_base_learning_rate", "value": 0.0015, "metadata": {"file": "/gpfs/alpine/aph114/scratch/mrowan/ml-performance-benchmark/cosmoflow/summit/src/utils/optimizers.py", "lineno": 89}}
…
