…
2048/2048 - 665s - loss: 0.2370 - mean_absolute_error: 0.4006 - val_loss: 0.1639 - val_mean_absolute_error: 0.3216
Epoch 1/5
2048/2048 - 666s - loss: 0.2367 - mean_absolute_error: 0.4007 - val_loss: 0.1643 - val_mean_absolute_error: 0.3226
Epoch 1/5
2048/2048 - 666s - loss: 0.2359 - mean_absolute_error: 0.4001 - val_loss: 0.1641 - val_mean_absolute_error: 0.3222
Model: "sequential"
_________________________________________________________________
Layer (type)                 Output Shape              Param #   
=================================================================
conv3d (Conv3D)              (None, 128, 128, 128, 32) 3488      
_________________________________________________________________
leaky_re_lu (LeakyReLU)      (None, 128, 128, 128, 32) 0         
_________________________________________________________________
max_pooling3d (MaxPooling3D) (None, 64, 64, 64, 32)    0         
_________________________________________________________________
conv3d_1 (Conv3D)            (None, 64, 64, 64, 64)    55360     
_________________________________________________________________
leaky_re_lu_1 (LeakyReLU)    (None, 64, 64, 64, 64)    0         
_________________________________________________________________
max_pooling3d_1 (MaxPooling3 (None, 32, 32, 32, 64)    0         
_________________________________________________________________
conv3d_2 (Conv3D)            (None, 32, 32, 32, 128)   221312    
_________________________________________________________________
leaky_re_lu_2 (LeakyReLU)    (None, 32, 32, 32, 128)   0         
_________________________________________________________________
max_pooling3d_2 (MaxPooling3 (None, 16, 16, 16, 128)   0         
_________________________________________________________________
conv3d_3 (Conv3D)            (None, 16, 16, 16, 256)   884992    
_________________________________________________________________
leaky_re_lu_3 (LeakyReLU)    (None, 16, 16, 16, 256)   0         
_________________________________________________________________
max_pooling3d_3 (MaxPooling3 (None, 8, 8, 8, 256)      0         
_________________________________________________________________
conv3d_4 (Conv3D)            (None, 8, 8, 8, 512)      3539456   
_________________________________________________________________
leaky_re_lu_4 (LeakyReLU)    (None, 8, 8, 8, 512)      0         
_________________________________________________________________
max_pooling3d_4 (MaxPooling3 (None, 4, 4, 4, 512)      0         
_________________________________________________________________
flatten (Flatten)            (None, 32768)             0         
_________________________________________________________________
dense (Dense)                (None, 128)               4194432   
_________________________________________________________________
leaky_re_lu_5 (LeakyReLU)    (None, 128)               0         
_________________________________________________________________
dropout (Dropout)            (None, 128)               0         
_________________________________________________________________
dense_1 (Dense)              (None, 64)                8256      
_________________________________________________________________
leaky_re_lu_6 (LeakyReLU)    (None, 64)                0         
_________________________________________________________________
dropout_1 (Dropout)          (None, 64)                0         
_________________________________________________________________
dense_2 (Dense)              (None, 4)                 260       
_________________________________________________________________
lambda (Lambda)              (None, 4)                 0         
=================================================================
Total params: 8,907,556
Trainable params: 8,907,556
Non-trainable params: 0
_________________________________________________________________
Epoch 1/5
2048/2048 - 668s - loss: 0.2366 - mean_absolute_error: 0.4000 - val_loss: 0.1648 - val_mean_absolute_error: 0.3222
Epoch 1/5
2048/2048 - 668s - loss: 0.2349 - mean_absolute_error: 0.3989 - val_loss: 0.1639 - val_mean_absolute_error: 0.3214
…
