…
:::MLLOG {"namespace": "", "time_ms": 1622837418639, "event_type": "POINT_IN_TIME", "key": "opt_name", "value": "SGD", "metadata": {"file": "/gpfs/alpine/aph114/scratch/mrowan/ml-performance-benchmark/cosmoflow/summit_v2/src/utils/optimizers.py", "lineno": 106}}
2021-06-04 16:10:18,682 INFO Writing config via pickle to results/8_nodes_batchsize_8_j1056949/config.pkl
2021-06-04 16:10:18,686 INFO Preparing callbacks
Model: "sequential"
_________________________________________________________________
Layer (type)                 Output Shape              Param #   
=================================================================
conv3d (Conv3D)              (None, 128, 128, 128, 32) 3488      
_________________________________________________________________
leaky_re_lu (LeakyReLU)      (None, 128, 128, 128, 32) 0         
_________________________________________________________________
max_pooling3d (MaxPooling3D) (None, 64, 64, 64, 32)    0         
_________________________________________________________________
conv3d_1 (Conv3D)            (None, 64, 64, 64, 64)    55360     
_________________________________________________________________
leaky_re_lu_1 (LeakyReLU)    (None, 64, 64, 64, 64)    0         
_________________________________________________________________
max_pooling3d_1 (MaxPooling3 (None, 32, 32, 32, 64)    0         
_________________________________________________________________
conv3d_2 (Conv3D)            (None, 32, 32, 32, 128)   221312    
_________________________________________________________________
leaky_re_lu_2 (LeakyReLU)    (None, 32, 32, 32, 128)   0         
_________________________________________________________________
max_pooling3d_2 (MaxPooling3 (None, 16, 16, 16, 128)   0         
_________________________________________________________________
conv3d_3 (Conv3D)            (None, 16, 16, 16, 256)   884992    
_________________________________________________________________
leaky_re_lu_3 (LeakyReLU)    (None, 16, 16, 16, 256)   0         
_________________________________________________________________
max_pooling3d_3 (MaxPooling3 (None, 8, 8, 8, 256)      0         
_________________________________________________________________
conv3d_4 (Conv3D)            (None, 8, 8, 8, 512)      3539456   
_________________________________________________________________
leaky_re_lu_4 (LeakyReLU)    (None, 8, 8, 8, 512)      0         
_________________________________________________________________
max_pooling3d_4 (MaxPooling3 (None, 4, 4, 4, 512)      0         
_________________________________________________________________
flatten (Flatten)            (None, 32768)             0         
_________________________________________________________________
dense (Dense)                (None, 128)               4194432   
_________________________________________________________________
leaky_re_lu_5 (LeakyReLU)    (None, 128)               0         
_________________________________________________________________
dropout (Dropout)            (None, 128)               0         
_________________________________________________________________
dense_1 (Dense)              (None, 64)                8256      
_________________________________________________________________
leaky_re_lu_6 (LeakyReLU)    (None, 64)                0         
_________________________________________________________________
dropout_1 (Dropout)          (None, 64)                0         
_________________________________________________________________
dense_2 (Dense)              (None, 4)                 260       
_________________________________________________________________
lambda (Lambda)              (None, 4)                 0         
=================================================================
Total params: 8,907,556
Trainable params: 8,907,556
Non-trainable params: 0
_________________________________________________________________
:::MLLOG {"namespace": "", "time_ms": 1622837418686, "event_type": "POINT_IN_TIME", "key": "opt_base_learning_rate", "value": 0.006, "metadata": {"file": "/gpfs/alpine/aph114/scratch/mrowan/ml-performance-benchmark/cosmoflow/summit_v2/src/utils/optimizers.py", "lineno": 89}}
…
